…
t_features=768, bias=True) (9): LayerNorm((768,), eps=1e-05, elementwise_affine=True) (10): Dropout(p=0.1, inplace=False) ), Sequential( (0): Linear(in_features=768, out_features=768, bias=True) (1): Tanh() (2): Linear(in_features=768, out_features=768, bias=True) (3): Dropout(p=0.1, inplace=False) (4): Linear(in_features=768, out_features=5, bias=True) )] . learner.summary() . CustomTransformerModel ====================================================================== Layer (type) Output Shape Param # Trainable ====================================================================== Embedding [75, 768] 38,603,520 False ______________________________________________________________________ Embedding [75, 768] 394,752 False ______________________________________________________________________ Embedding [75, 768] 768 False ______________________________________________________________________ LayerNorm [75, 768] 1,536 False ______________________________________________________________________ Dropout [75, 768] 0 False ______________________________________________________________________ Linear [75, 768] 590,592 False ______________________________________________________________________ Linear [75, 768] 590,592 False ______________________________________________________________________ Linear [75, 768] 590,592 False ______________________________________________________________________ Dropout [12, 75, 75] 0 False ______________________________________________________________________ Linear [75, 768] 590,592 False ______________________________________________________________________ LayerNorm [75, 768] 1,536 False ______________________________________________________________________ Dropout [75, 768] 0 False ______________________________________________________________________ Linear [75, 3072] 2,362,368 False ______________________________________________________________________ Linear [75, 768] 2,360,064 False ______________________________________________________________________ LayerNorm [75, 768] 1,536 False ______________________________________________________________________ Dropout [75, 768] 0 False ______________________________________________________________________ Linear [75, 768] 590,592 False ______________________________________________________________________ Linear [75, 768] 590,592 False ______________________________________________________________________ Linear [75, 768] 590,592 False ______________________________________________________________________ Dropout [12, 75, 75] 0 False ______________________________________________________________________ Linear [75, 768] 590,592 False ______________________________________________________________________ LayerNorm [75, 768] 1,536 False ______________________________________________________________________ Dropout [75, 768] 0 False ______________________________________________________________________ Linear [75, 3072] 2,362,368 False ______________________________________________________________________ Linear [75, 768] 2,360,064 False ______________________________________________________________________ LayerNorm [75, 768] 1,536 False ______________________________________________________________________ Dropout [75, 768] 0 False ______________________________________________________________________ Linear [75, 768] 590,592 False ______________________________________________________________________ Linear [75, 768] 590,592 False ______________________________________________________________________ Linear [75, 768] 590,592 False ______________________________________________________________________ Dropout [12, 75, 75] 0 False ______________________________________________________________________ Linear [75, 768] 590,592 False ______________________________________________________________________ LayerNorm [75, 768] 1,536 False ______________________________________________________________________ Dropout [75, 768] 0 False ______________________________________________________________________ Linear [75, 3072] 2,362,368 False ______________________________________________________________________ Linear [75, 768] 2,360,064 False ______________________________________________________________________ LayerNorm [75, 768] 1,536 False ______________________________________________________________________ Dropout [75, 768] 0 False ______________________________________________________________________ Linear [75, 768] 590,592 False ______________________________________________________________________ Linear [75, 768] 590,592 False ______________________________________________________________________ Linear [75, 768] 590,592 False ______________________________________________________________________ Dropout [12, 75, 75] 0 False ______________________________________________________________________ Linear [75, 768] 590,592 False ______________________________________________________________________ LayerNorm [75, 768] 1,536 False ______________________________________________________________________ Dropout [75, 768] 0 False ______________________________________________________________________ Linear [75, 3072] 2,362,368 False ______________________________________________________________________ Linear [75, 768] 2,360,064 False ______________________________________________________________________ LayerNorm [75, 768] 1,536 False ______________________________________________________________________ Dropout [75, 768] 0 False ______________________________________________________________________ Linear [75, 768] 590,592 False ______________________________________________________________________ Linear [75, 768] 590,592 False ______________________________________________________________________ Linear [75, 768] 590,592 False ______________________________________________________________________ Dropout [12, 75, 75] 0 False ______________________________________________________________________ Linear [75, 768] 590,592 False ______________________________________________________________________ LayerNorm [75, 768] 1,536 False ______________________________________________________________________ Dropout [75, 768] 0 False ______________________________________________________________________ Linear [75, 3072] 2,362,368 False ______________________________________________________________________ Linear [75, 768] 2,360,064 False ______________________________________________________________________ LayerNorm [75, 768] 1,536 False ______________________________________________________________________ Dropout [75, 768] 0 False ______________________________________________________________________ Linear [75, 768] 590,592 False ______________________________________________________________________ Linear [75, 768] 590,592 False ______________________________________________________________________ Linear [75, 768] 590,592 False ______________________________________________________________________ Dropout [12, 75, 75] 0 False ______________________________________________________________________ Linear [75, 768] 590,592 False ______________________________________________________________________ LayerNorm [75, 768] 1,536 False ______________________________________________________________________ Dropout [75, 768] 0 False ______________________________________________________________________ Linear [75, 3072] 2,362,368 False ______________________________________________________________________ Linear [75, 768] 2,360,064 False ______________________________________________________________________ LayerNorm [75, 768] 1,536 False ______________________________________________________________________ Dropout [75, 768] 0 False ______________________________________________________________________ Linear [75, 768] 590,592 False ______________________________________________________________________ Linear [75, 768] 590,592 False ______________________________________________________________________ Linear [75, 768] 590,592 False ______________________________________________________________________ Dropout [12, 75, 75] 0 False ______________________________________________________________________ Linear [75, 768] 590,592 False ______________________________________________________________________ LayerNorm [75, 768] 1,536 False ______________________________________________________________________ Dropout [75, 768] 0 False ______________________________________________________________________ Linear [75, 3072] 2,362,368 False ______________________________________________________________________ Linear [75, 768] 2,360,064 False ______________________________________________________________________ LayerNorm [75, 768] 1,536 False ______________________________________________________________________ Dropout [75, 768] 0 False ______________________________________________________________________ Linear [75, 768] 590,592 False ______________________________________________________________________ Linear [75, 768] 590,592 False ______________________________________________________________________ Linear [75, 768] 590,592 False ______________________________________________________________________ Dropout [12, 75, 75] 0 False ______________________________________________________________________ Linear [75, 768] 590,592 False ______________________________________________________________________ LayerNorm [75, 768] 1,536 False ______________________________________________________________________ Dropout [75, 768] 0 False ______________________________________________________________________ Linear [75, 3072] 2,362,368 False ______________________________________________________________________ Linear [75, 768] 2,360,064 False ______________________________________________________________________ LayerNorm [75, 768] 1,536 False ______________________________________________________________________ Dropout [75, 768] 0 False ______________________________________________________________________ Linear [75, 768] 590,592 False ______________________________________________________________________ Linear [75, 768] 590,592 False ______________________________________________________________________ Linear [75, 768] 590,592 False ______________________________________________________________________ Dropout [12, 75, 75] 0 False ______________________________________________________________________ Linear [75, 768] 590,592 False ______________________________________________________________________ LayerNorm [75, 768] 1,536 False ______________________________________________________________________ Dropout [75, 768] 0 False ______________________________________________________________________ Linear [75, 3072] 2,362,368 False ______________________________________________________________________ Linear [75, 768] 2,360,064 False ______________________________________________________________________ LayerNorm [75, 768] 1,536 False ______________________________________________________________________ Dropout [75, 768] 0 False ______________________________________________________________________ Linear [75, 768] 590,592 False ______________________________________________________________________ Linear [75, 768] 590,592 False ______________________________________________________________________ Linear [75, 768] 590,592 False ______________________________________________________________________ Dropout [12, 75, 75] 0 False ______________________________________________________________________ Linear [75, 768] 590,592 False ______________________________________________________________________ LayerNorm [75, 768] 1,536 False ______________________________________________________________________ Dropout [75, 768] 0 False ______________________________________________________________________ Linear [75, 3072] 2,362,368 False ______________________________________________________________________ Linear [75, 768] 2,360,064 False ______________________________________________________________________ LayerNorm [75, 768] 1,536 False ______________________________________________________________________ Dropout [75, 768] 0 False ______________________________________________________________________ Linear [75, 768] 590,592 False ______________________________________________________________________ Linear [75, 768] 590,592 False ______________________________________________________________________ Linear [75, 768] 590,592 False ______________________________________________________________________ Dropout [12, 75, 75] 0 False ______________________________________________________________________ Linear [75, 768] 590,592 False ______________________________________________________________________ LayerNorm [75, 768] 1,536 False ______________________________________________________________________ Dropout [75, 768] 0 False ______________________________________________________________________ Linear [75, 3072] 2,362,368 False ______________________________________________________________________ Linear [75, 768] 2,360,064 False ______________________________________________________________________ LayerNorm [75, 768] 1,536 False ______________________________________________________________________ Dropout [75, 768] 0 False ______________________________________________________________________ Linear [75, 768] 590,592 False ______________________________________________________________________ Linear [75, 768] 590,592 False ______________________________________________________________________ Linear [75, 768] 590,592 False ______________________________________________________________________ Dropout [12, 75, 75] 0 False ______________________________________________________________________ Linear [75, 768] 590,592 False ______________________________________________________________________ LayerNorm [75, 768] 1,536 False ______________________________________________________________________ Dropout [75, 768] 0 False ______________________________________________________________________ Linear [75, 3072] 2,362,368 False ______________________________________________________________________ Linear [75, 768] 2,360,064 False ______________________________________________________________________ LayerNorm [75, 768] 1,536 False ______________________________________________________________________ Dropout [75, 768] 0 False ______________________________________________________________________ Linear [768] 590,592 True ______________________________________________________________________ Tanh [768] 0 False ______________________________________________________________________ Linear [768] 590,592 True ______________________________________________________________________ Dropout [768] 0 False ________________
…
 tensorflow.python.ops.math_ops) is deprecated and will be removed in a future version. Instructions for updating: Use tf.cast instead. /usr/local/lib/python3.6/dist-packages/keras/engine/saving.py:327: UserWarning: Error in loading the saved optimizer state. As a result, your model is starting with a freshly initialized optimizer. warnings.warn(&#39;Error in loading the saved optimizer &#39; . model.summary() . _________________________________________________________________ Layer (type) Output Shape Param # ================================================================= conv2d_1 (Conv2D) (None, 64, 48, 48) 640 _________________________________________________________________ dropout_1 (Dropout) (None, 64, 48, 48) 0 _________________________________________________________________ max_pooling2d_1 (MaxPooling2 (None, 64, 24, 24) 0 _________________________________________________________________ conv2d_2 (Conv2D) (None, 128, 24, 24) 204928 _________________________________________________________________ dropout_2 (Dropout) (None, 128, 24, 24) 0 _________________________________________________________________ max_pooling2d_2 (MaxPooling2 (None, 128, 12, 12) 0 _________________________________________________________________ conv2d_3 (Conv2D) (None, 512, 12, 12) 590336 _________________________________________________________________ dropout_3 (Dropout) (None, 512, 12, 12) 0 _________________________________________________________________ max_pooling2d_3 (MaxPooling2 (None, 512, 6, 6) 0 _________________________________________________________________ conv2d_4 (Conv2D) (None, 512, 6, 6) 2359808 _________________________________________________________________ dropout_4 (Dropout) (None, 512, 6, 6) 0 _________________________________________________________________ max_pooling2d_4 (MaxPooling2 (None, 512, 3, 3) 0 _________________________________________________________________ flatten_1 (Flatten) (None, 4608) 0 _________________________________________________________________ dense_1 (Dense) (None, 256) 1179904 _________________________________________________________________ dropout_5 (Dropout) (None, 256) 0 _________________________________________________________________ dense_2 (Dense) (None, 512) 131584 _________________________________________________________________ dropout_6 (Dropout) (None, 512) 0 _________________________________________________________________ dense_3 (Dense) (None, 7) 3591 ================================================================= Total params: 4,470,791 Trainable params: 4,470,791 Non-trainable params: 0 _________________________________________________________________ . Pre-trained 모델을 사용하여 새로운 얼굴 사진이 들어오면 다음 7가지 감정 중 하나로 라벨링한다. . ‘angry’, ‘disgust’, ‘fear’, ‘happy’, ‘sad’, ‘surprise’ ,’neutral’ | . def test_image(addr): target = [&#39;angry&#39;,&#39;disg
…
